complex_classifier/best.ckpt (torch, 764623 bytes, 70 tensors)

initial_bn.weight f4 [64]
0	0x3f91faf2	1.1404707
1	0x3f8a9488	1.0826578
2	0x3f952c34	1.1654115
3	0x3f849d90	1.0360584
4	0x3f922634	1.1417909
5	0x3f837222	1.0269206
6	0x3f82e4bc	1.0226054
7	0x3f7f8f11	0.99827677
8	0x3f6f4f01	0.93479925
9	0x3f87dd01	1.061432
10	0x3f864624	1.0490155
11	0x3f828ef6	1.0199878
12	0x3f885fa3	1.0654186
13	0x3f7f0358	0.9961448
14	0x3f6eae7b	0.93234986
15	0x3f814c36	1.0101383
16	0x3f77a855	0.9674123
17	0x3f8ab8a6	1.08376
18	0x3f813e4b	1.0097135
19	0x3f801303	1.0005802
20	0x3f890b2b	1.0706533
21	0x3f908562	1.1290705
22	0x3f932001	1.1494142
23	0x3f97c40f	1.1856707
24	0x3fa2c2ba	1.2715676
25	0x3fb09124	1.3794293
26	0x3fbe4250	1.4863987
27	0x3fa9f853	1.3278908
28	0x3f920dc5	1.1410452
29	0x3fcd3fda	1.6035111
30	0x3fdad786	1.7097023
31	0x3fcc5b3b	1.5965341
32	0x3fc81ea6	1.5634353
33	0x400cd507	2.2005022
34	0x3fc174ff	1.5113829
35	0x3fa1bf5f	1.2636527
36	0x3fcf85c5	1.6212698
37	0x3fb2e621	1.397648
38	0x3f7b91cd	0.9826935
39	0x3f80bd8e	1.0057847
40	0x3f7ff69c	0.9998567
41	0x3f742b69	0.9537874
42	0x3f7fcaa7	0.999186
43	0x3f71e6df	0.94492906
44	0x3f6fce07	0.9367375
45	0x3f71b53c	0.94417167
46	0x3f6e743a	0.931461
47	0x3f6cfe7e	0.92575824
48	0x3f70b729	0.9402948
49	0x3f6b132e	0.9182614
50	0x3f748c2c	0.95526385
51	0x3f74ac84	0.9557574
52	0x3f6d8e38	0.92795134
53	0x3f6e8395	0.9316953
54	0x3f70f95b	0.94130486
55	0x3f7a979e	0.978876
56	0x3f6becc8	0.92158175
57	0x3f7313e7	0.94952244
58	0x3f72905d	0.9475153
59	0x3f6770f8	0.9040675
60	0x3f7359c8	0.9505887
61	0x3f734926	0.9503349
62	0x3f75237b	0.95757264
63	0x3f7e8330	0.99418926

initial_bn.bias f4 [64]
0	0x3a51fae6	0.0008010104
1	0xbc1cfe99	-0.009582185
2	0xbab60685	-0.0013887441
3	0x39f9a0a2	0.00047612662
4	0xbbd600a0	-0.006530836
5	0x3b8d44c2	0.004311175
6	0xbca9c0c4	-0.0207218
7	0xbae1fca9	-0.0017241436
8	0x3af30c9d	0.0018543188
9	0x3bac9c4e	0.0052676564
10	0xbb44f79b	-0.003005481
11	0xbaafa872	-0.0013401641
12	0x3bb2cc8a	0.005456512
13	0x3c21568d	0.0098472955
14	0x3bbc9512	0.0057550753
15	0x3c053ece	0.00813265
16	0x3b93dbf0	0.0045123026
17	0xbb1a17d3	-0.0023512735
18	0x3adbfe48	0.0016784156
19	0x3b8fc076	0.004386957
20	0x3b8158fa	0.0039473744
21	0xbaf41d19	-0.0018624394
22	0x3c4d4fcd	0.012531233
23	0x3b5ac0df	0.003337912
24	0x3c3dbb14	0.011580247
25	0xba6cf8fb	-0.00090397865
26	0xbbc7c0dd	-0.006095989
27	0xbb2a6827	-0.002600202
28	0xbcb8508c	-0.022499345
29	0xbc1293ae	-0.008946342
30	0xbad61fca	-0.0016336378
31	0xbbe8f967	-0.007109809
32	0x3c5b6503	0.013390782
33	0xbbcb0780	-0.0061959624
34	0xba025f26	-0.00049732847
35	0xbb528c98	-0.0032127257
36	0x3c1df06f	0.009639843
37	0xbc208cd5	-0.009799202
38	0xbc42a4f1	-0.011880145
39	0xbca423e1	-0.02003664
40	0xbb2a6b47	-0.0026003884
41	0xbcacb808	-0.021083847
42	0xbd2f9494	-0.042866305
43	0xbb9ed862	-0.004847572
44	0x3c9990b8	0.018745765
45	0x3bf842cf	0.0075763236
46	0x3c6050bc	0.013691124
47	0xbcb9e629	-0.022692757
48	0xbb383fc9	-0.002811419
49	0x3c63598b	0.013876329
50	0x3c88230d	0.016618276
51	0x3c8ba326	0.017045569
52	0x3c74577c	0.014913436
53	0x3d291538	0.04128
54	0x3c2c1599	0.010503196
55	0xbac3cb70	-0.0014937948
56	0xbd0924ab	-0.033482235
57	0xbca3874b	-0.019961974
58	0x3b4abdec	0.0030935956
59	0x3b54d05e	0.003247283
60	0xbab112fb	-0.0013509685
61	0x3c90148e	0.017587926
62	0xbc8aeff0	-0.016960114
63	0x3c343549	0.010999032

initial_bn.running_mean f4 [64]
0	0xbf6834da	-0.90705645
1	0xbfb0b42f	-1.3804988
2	0xbfbed40b	-1.490846
3	0xbfb78b97	-1.4339474
4	0xbfc24d92	-1.5179923
5	0xbf0f73f5	-0.5603631
6	0x411db04b	9.85554
7	0xbf4a942a	-0.7913233
8	0x3e80cf92	0.25158364
9	0x3fc99336	1.574805
10	0xbf96359b	-1.1735109
11	0xbfe9877c	-1.8244472
12	0x3f99398f	1.197069
13	0xbe5edab6	-0.21763119
14	0xbf7a8004	-0.97851586
15	0xbe2ba90d	-0.16763707
16	0x3af0f0b6	0.0018382284
17	0xbf752258	-0.9575553
18	0xbf030618	-0.51181173
19	0xbdc3eddc	-0.095668525
20	0xbe32a749	-0.17446627
21	0xbe5e90c4	-0.21734911
22	0xbf03bd65	-0.5146087
23	0xbeaa5a7b	-0.33272156
24	0xbe3ea57b	-0.18617813
25	0x3f81ad31	1.0130979
26	0xbdf282b4	-0.11841336
27	0xc0194989	-2.3951132
28	0x3f0f996b	0.5609347
29	0xbf0a850a	-0.5410925
30	0x3ee9c6a6	0.4565937
31	0xbe90ede3	-0.28306493
32	0x3e81effd	0.2537841
33	0xbfd39d86	-1.6532447
34	0xbd47f9f4	-0.04882236
35	0xc17f44ea	-15.954325
36	0x3f059720	0.52183723
37	0x3ea7bd4d	0.32761613
38	0x3edbf85a	0.42962915
39	0x3e9643b5	0.2934853
40	0x3e63556e	0.22200558
41	0x3e30583b	0.17221157
42	0x3e0a3807	0.13497935
43	0x3dd9eba0	0.10640645
44	0x3dac6785	0.08418182
45	0x3d88b00e	0.06674205
46	0x3d58f632	0.052969165
47	0x3d2c319d	0.042039502
48	0x3d088921	0.0333339
49	0x3cd81a96	0.026379865
50	0x3caa7ee3	0.020812457
51	0x3c85eb85	0.016347656
52	0x3c511bc4	0.0127629675
53	0x3c21ed41	0.009883226
54	0x3bf80fea	0.0075702565
55	0x3bbb4345	0.0057148063
56	0x3b8a9f9a	0.004230452
57	0x3b47d19a	0.0030489923
58	0x3b0ab95d	0.0021167614
59	0x3ab66f7d	0.0013918724
60	0x3a5cbe48	0.0008420688
61	0x39e84cae	0.0004430762
62	0x393a0223	0.00017739138
63	0x380bf1d8	3.3365417e-05

initial_bn.running_var f4 [64]
0	0x4615ea0f	9594.515
1	0x45f89d34	7955.6504
2	0x4665c8d0	14706.203
3	0x46b03d83	22558.756
4	0x47073382	34611.508
5	0x45f6e7dc	7900.9824
6	0x4bb3c8a9	2.3564626e+07
7	0x46914059	18592.174
8	0x4796154d	76842.6
9	0x489a5adb	316118.84
10	0x47188aad	39050.676
11	0x4870f6ce	246747.22
12	0x48b1ece1	364391.03
13	0x45e051c0	7178.2188
14	0x46e249da	28964.926
15	0x463e8ab9	12194.681
16	0x4674ac92	15659.143
17	0x47a4fccf	84473.62
18	0x470e0b08	36363.03
19	0x45d713c6	6882.4717
20	0x463543b9	11600.931
21	0x4719577b	39255.48
22	0x45e43786	7302.9404
23	0x453d93b1	3033.2307
24	0x46ce35e4	26394.945
25	0x48a8f57d	346027.9
26	0x4640b6a8	12333.664
27	0x4983f76c	1.0810695e+06
28	0x485928aa	222370.66
29	0x47725dac	62045.67
30	0x46a6ebd9	21365.924
31	0x45b0b91b	5655.138
32	0x467f9fbc	16359.934
33	0x489291d9	300174.78
34	0x45c4f682	6302.8135
35	0x4c501e0e	5.455673e+07
36	0x45b3de61	5755.7974
37	0x46479b44	12774.816
38	0x3d91a278	0.071110666
39	0x3c935b86	0.017987978
40	0x3c12de0e	0.008964075
41	0x3bac580c	0.0052595194
42	0x3b54a6d5	0.0032448072
43	0x3b05b6c8	0.0020403136
44	0x3aa9a5f8	0.0012943139
45	0x3a581f1d	0.00082443823
46	0x3a09ced9	0.0005256958
47	0x39af8590	0.00033478113
48	0x395ed295	0.00021250018
49	0x390cb153	0.00013417499
50	0x38b05b0a	8.409291e-05
51	0x385add9d	5.2181644e-05
52	0x38060a60	3.1957752e-05
53	0x37a16294	1.92386e-05
54	0x373dfb48	1.1323784e-05
55	0x36d91977	6.4700685e-06
56	0x366e70c9	3.5530413e-06
57	0x35f82295	1.8487505e-06
58	0x356f8473	8.9227177e-07
59	0x34cf56fd	3.8620047e-07
60	0x3417e692	1.4146852e-07
61	0x33285202	3.9190134e-08
62	0x31d7ed09	6.2842713e-09
63	0x2f747f91	2.2236991e-10

fc1.weight f4 [256, 64]
0	0xbdd21b98	-0.10259169
1	0x3d7b0811	0.06128699
2	0xbd07de1e	-0.03317081
3	0xbd0b2141	-0.03396726
4	0xbe0b62d9	-0.13611926
5	0xbde88704	-0.11353877
6	0x3d1e6da8	0.038678795
7	0xbd2fef25	-0.042952675
8	0x3b826ff3	0.0039806305
9	0x3d503761	0.050834063
10	0xbdf943dd	-0.12171147
11	0xbe09664c	-0.1341793
12	0xbd746573	-0.059667062
13	0xbe0fe963	-0.14053874
14	0xbddb1d7d	-0.10698984
15	0x3d90a070	0.07061851
16	0xbe28a5f1	-0.16469552
17	0xbdb1474a	-0.086561754
18	0xbd8e9fc3	-0.06964066
19	0x3b73e274	0.0037213834
20	0xbd6d794e	-0.057977013
21	0x3debe08d	0.11517439
22	0xbc999191	-0.01874617
23	0x3c8fcc6e	0.017553534
24	0x3d2f9ab1	0.042872135
25	0xbb249000	-0.0025110245
26	0x3d3e2bb2	0.04642839
27	0x3d6a2ce0	0.057171702
28	0x3dfd5583	0.12369826
29	0xbd6ad5bf	-0.05733275
30	0x3d7325e3	0.059362303
31	0x3e85d511	0.2613912
32	0x3d784c07	0.06061938
33	0x3f04e4be	0.5191153
34	0x3c9d1085	0.019172916
35	0x3cf76cc2	0.030203227
36	0x3e3e873c	0.18606275
37	0x3e84472c	0.2583555
38	0xbdb5ec0e	-0.088829145
39	0xbda49480	-0.080361366
40	0x3dd203f1	0.10254658
41	0x3e0b8d93	0.13628225
42	0x3dbc6062	0.09198071
43	0x3e1be6e7	0.15224801
44	0x3c13d149	0.009022065
45	0x3d96a1bc	0.07355067
46	0x3d0079e2	0.031366237
47	0xbd5d3d51	-0.054013554
48	0x3de65a71	0.11247719
49	0x39914d50	0.00027714157
50	0xbd3530d4	-0.04423602
51	0xbcafdd0a	-0.021467704
52	0x3d894603	0.06702807
53	0xbdc31523	-0.09525516
54	0x3b4a72fc	0.003089129
55	0xbdf02585	-0.11725906
56	0x3d76a765	0.060218234
57	0xbde304ec	-0.11084923
58	0x3dd6b3a6	0.10483484
59	0x3d025634	0.03182049
60	0x3dcbf029	0.09957916
61	0x3d2c5ad9	0.042078827
62	0x3d70f745	0.058829565
63	0xbc73a3ac	-0.014870565
64	0x3d92c970	0.071673274
65	0xbd28f441	-0.041248564
66	0xbb0bee32	-0.0021351692
67	0x3b1b9f9b	0.0023746255
68	0x3c8b288d	0.01698711
69	0xbcf00d9e	-0.029303368
70	0xbdcd6749	-0.10029466
71	0x3b9365c4	0.0044982154
72	0x3dc39334	0.09549561
73	0xbd33248d	-0.04373603
74	0x3cdc1fb6	0.02687059
75	0xbd941c21	-0.07231928
76	0xbc544351	-0.012955503
77	0x3cff034c	0.031129502
78	0xbccba11d	-0.024857098
79	0xbd386fbc	-0.045028433
80	0x3df17477	0.11789792
81	0x3b9425cc	0.0045211073
82	0x3da3687b	0.079789124
83	0x3b8d81c0	0.004318446
84	0xbd0c74e9	-0.03429118
85	0x3dbe6368	0.09296304
86	0x3e1dd3a0	0.1541276
87	0x3d22aa13	0.039712977
88	0xbd334ec5	-0.043776292
89	0x3d8412e2	0.06448914
90	0x3c9dde31	0.019270988
91	0xbd280c80	-0.041027546
92	0x3d0e6869	0.034767542
93	0xba081a2b	-0.00051918876
94	0xbe6affef	-0.22949193
95	0x3df80b84	0.121115714
96	0xbe19af2d	-0.1500823
97	0xbd677e69	-0.05651704
98	0x3e93d90d	0.28876534
99	0x3d6856ff	0.05672359
100	0xbd692ac2	-0.056925543
101	0xbd7cf7f9	-0.061759923
102	0xbe1e247e	-0.15443608
103	0xbd5b62c0	-0.053560972
104	0x3bf02e06	0.007329705
105	0xbd4c2a1e	-0.049844854
106	0x3e071ca2	0.13194516
107	0xbd24befe	-0.040221207
108	0xbca76657	-0.020434542
109	0x3dddf392	0.10837473
110	0xbccc8b2c	-0.024968706
111	0xbd0a3878	-0.03374526
112	0xbdd77926	-0.10521154
113	0x3da95c7b	0.082695924
114	0x3cc83009	0.024436967
115	0x3d841386	0.06449036
116	0xbdb3cc44	-0.08779195
117	0xbd8540e8	-0.065065205
118	0x3ce27a74	0.02764628
119	0x3d53488f	0.05158287
120	0x3d9c50d9	0.07632608
121	0xbd6192f3	-0.055071782
122	0xbdded4fa	-0.10880466
123	0x3dcac3cd	0.09900627
124	0x3d77351e	0.06035339
125	0x3cce7e1a	0.025206614
126	0x3dd95a98	0.106129825
127	0xbdc79232	-0.097446814
128	0xba39c406	-0.00070864
129	0x3d38ba47	0.045099523
130	0xbca65787	-0.020305408
131	0xbc552942	-0.013010325
132	0x3d941cab	0.072320305
133	0x3c4573d5	0.012051542
134	0xbdb06a14	-0.08613983
135	0x3b8675ab	0.0041033826
136	0x3dcb6ac5	0.09932474
137	0x3dbeca04	0.09315875
138	0xbcdae22e	-0.026719179
139	0xbd3b9b47	-0.04580238
140	0xbd9949f1	-0.07484806
141	0xbc284f90	-0.010272875
142	0xbbc7ed7d	-0.006101309
143	0xbb7917b2	-0.0038008508
144	0x3cc3b08f	0.0238879
145	0xbd5263be	-0.051364653
146	0xbdfa5f63	-0.12225225
147	0x3da35311	0.07974828
148	0x3de56c77	0.11202329
149	0xbd9724a2	-0.07380034
150	0xbdf8d731	-0.121504195
151	0x3e38dd55	0.18053181
152	0x3e4c85f7	0.19972979
153	0x3da909be	0.08253811
154	0xbe4aebaf	-0.19816469
155	0xbd3aa6e1	-0.045569304
156	0x3d93f572	0.07224549
157	0x3de30501	0.11084939
158	0x3deb3c25	0.11486081
159	0xbe6f9540	-0.23396778
160	0xbe112953	-0.1417592
161	0xbdb50e48	-0.088406146
162	0xbe69c295	-0.22828133
163	0xbd11c4dd	-0.035588134
164	0x3ca92cf5	0.02065132
165	0x3d9598e0	0.07304549
166	0x3b651272	0.0034953621
167	0x3e15094b	0.14554326
168	0xbdc26dc0	-0.094935894
169	0xbc81bb5b	-0.015836408
170	0xbdf9cdcd	-0.121974565
171	0xbcc372ed	-0.023858512
172	0x3db6b2ff	0.089208595
173	0xbdb62ff3	-0.08895864
174	0x3d4d9912	0.050194807
175	0xbd5b6270	-0.053560674
176	0x3cf7d0ca	0.030250926
177	0xbd844c6b	-0.06459888
178	0xbb1dc69f	-0.0024074686
179	0xbd25a090	-0.040436327
180	0x3db14a78	0.08656782
181	0x3d6e8fae	0.058242492
182	0xb9cb5632	-0.00038783398
183	0xbdc27027	-0.094940476
184	0x3d8582ad	0.06519065
185	0x3c6a322d	0.014294189
186	0xbd6bbee6	-0.0575551
187	0x3c7f7cdd	0.015593735
188	0xbc8d472f	-0.017245857
189	0xbda7de10	-0.08196652
190	0xbc227e9d	-0.009917882
191	0x3a80dff8	0.0009832373
192	0xbd7b05e4	-0.061284915
193	0xbd114add	-0.035471786
194	0xbca1a71f	-0.01973301
195	0xbbf9bddb	-0.0076215095
196	0xbb88292b	-0.004155298
197	0x3d8a96a9	0.067670174
198	0xbe1d01e7	-0.15332757
199	0xbd3341ca	-0.043763913
200	0xbe1fe694	-0.15615302
201	0x3c9350dc	0.017982893
202	0xbdcaf8b1	-0.09910715
203	0x3dc269f0	0.09492862
204	0x3d061175	0.032731492
205	0xbe1c3572	-0.15254763
206	0xbc52e499	-0.012871885
207	0x3c8fb6a2	0.01754314
208	0x3c6ba2a3	0.014382037
209	0xbd73ce0d	-0.059522677
210	0x3d71e533	0.059056472
211	0xbd842bb9	-0.06453652
212	0x3d3c6dc6	0.046003126
213	0x3d9a9933	0.07548752
214	0xbd04cb94	-0.03242071
215	0xbd6fc241	-0.058534864
216	0xbd992eb7	-0.07479613
217	0xbe1a0246	-0.1503993
218	0xbcdace2c	-0.026709639
219	0x3e2afc3a	0.1669778
220	0xbdf62720	-0.12019181
221	0xbd7bdb88	-0.06148866
222	0x3dd820ac	0.10553107
223	0xbc8e0f88	-0.01734139
224	0xbd1a269b	-0.037634473
225	0xbdc50051	-0.09619201
226	0x3b0c862b	0.0021442275
227	0x3d51cff6	0.051223718
228	0xbcd9e255	-0.026597181
229	0xbdc5d391	-0.09659494
230	0x3e05efd5	0.1307977
231	0xbde28480	-0.110604286
232	0xbdae3e40	-0.08507967
233	0x3d72d991	0.05928952
234	0xbdc4f1b6	-0.09616415
235	0x3c04e917	0.008112214
236	0xbb7320a4	-0.0037098313
237	0xbd0ff333	-0.035144042
238	0x3d7ac31c	0.061221227
239	0xbd91197f	-0.07084941
240	0x3da5e961	0.08101154
241	0x3dd7f78a	0.10545261
242	0xbdcb1c59	-0.09917516
243	0xbd0ad09e	-0.03389036
244	0x3bf96d9f	0.007611945
245	0x3de82f2b	0.113371216
246	0xbd063693	-0.03276689
247	0xbca85ca6	-0.02055199
248	0xbd6f5559	-0.058431003
249	0xbd2f1810	-0.042747557
250	0x3b9e25d7	0.004826288
251	0xbde938de	-0.113878
252	0xbcb99b53	-0.022657072
253	0x3d8f6c75	0.070031084
254	0xbdb8341a	-0.089943126
255	0xbda810e2	-0.08206345

fc1.bias f4 [256]
0	0xbb2eed97	-0.0026691908
1	0xbce88af7	-0.028386576
2	0xbd869d41	-0.065729626
3	0x3d5152c0	0.051104307
4	0x3d28f190	0.041245997
5	0x3bcbe158	0.0062219314
6	0xbd9487d0	-0.07252467
7	0x3d907b87	0.07054811
8	0x3d766e31	0.06016368
9	0xbcf3d661	-0.02976531
10	0x3cd17c8a	0.02557208
11	0xbd1b7f2a	-0.03796307
12	0x3deb4b9e	0.11489032
13	0x3d25c62c	0.040472195
14	0xbcb717e3	-0.022350257
15	0xbd518367	-0.051150706
16	0xbc0d4965	-0.008623456
17	0xbd17da9c	-0.037073717
18	0xbd148f79	-0.03626964
19	0x3d9686d8	0.07349938
20	0xbe5fb2c5	-0.21845539
21	0x3dfa13f4	0.12210837
22	0x3d5e6255	0.054292995
23	0x3cac0ab7	0.021001203
24	0xbc763872	-0.015028106
25	0xbdc03200	-0.09384537
26	0xbc34e656	-0.0110412445
27	0xbdda3dd7	-0.10656326
28	0xbdbd67ae	-0.09248291
29	0x3d4cd570	0.050008237
30	0xbb7090bb	-0.003670736
31	0xbd8b8216	-0.06811921
32	0x3cc69a0a	0.024243373
33	0xbbc454ce	-0.005991555
34	0xbddeb413	-0.1087419
35	0xbd6cc6cd	-0.05780678
36	0x3e070741	0.13186361
37	0x3d6e5b58	0.05819258
38	0xbccc5dfc	-0.024947159
39	0x3ddab62e	0.10679279
40	0xbdfc2605	-0.12311939
41	0xbdd4cb6f	-0.103903644
42	0x3d154dba	0.03645108
43	0xbcc0bc1d	-0.0235272
44	0xbbb46317	-0.0055049765
45	0x3beeef8b	0.0072917393
46	0xbddf8cad	-0.10915504
47	0xbe3b5c1b	-0.18296854
48	0x3d8bbe39	0.068233915
49	0xbbe93cb8	-0.007117834
50	0xbdb8cce0	-0.09023452
51	0x3d38b130	0.045090854
52	0xbd87d13d	-0.06631706
53	0xbd7c8236	-0.061647616
54	0xbd7b8237	-0.06140348
55	0xbc21f50f	-0.009885087
56	0xbddea16a	-0.10870631
57	0xbd06a3c4	-0.032871023
58	0x3da070d3	0.078340195
59	0x3d8e139b	0.06937333
60	0xbc7c2de0	-0.015391797
61	0xbe1afaf0	-0.15134788
62	0x3d9e9e96	0.077450916
63	0xbcb9fb4c	-0.022702836
64	0x3e3641e1	0.17798568
65	0xb9ddac5f	-0.0004228083
66	0x3b9c4b68	0.0047697313
67	0xbe0d1c0b	-0.13780229
68	0xbd551f5e	-0.052031867
69	0x3cb2558d	0.02176931
70	0xbd8840b9	-0.0665297
71	0xbcfc1a35	-0.030774215
72	0xbdb9817a	-0.09057899
73	0x3d598081	0.053101066
74	0xbd3506e4	-0.044196025
75	0xbd187ce8	-0.037228495
76	0xbe30776d	-0.17233057
77	0x3ccd2344	0.02504123
78	0x3de1d069	0.11026079
79	0x3b21568b	0.0024618234
80	0x3c9dbbc1	0.019254567
81	0x3d90874a	0.07057054
82	0x3d02682f	0.03183764
83	0x3d2e07be	0.042487852
84	0xbd776286	-0.060396694
85	0x3dd400b1	0.103516944
86	0x3dd03949	0.10167176
87	0xbc2fe6a4	-0.010736141
88	0x3c129404	0.0089464225
89	0x3cc2bfd7	0.023773117
90	0xbdc3b6bd	-0.09556339
91	0x3d847ce9	0.06469137
92	0xbdea50db	-0.11441203
93	0x3d94b2ce	0.07260667
94	0xbcbf9dca	-0.02339067
95	0x3ccdcdc9	0.02512254
96	0x3d532bb5	0.051555354
97	0xbd7a5ccd	-0.061123658
98	0xbd2561b2	-0.040376373
99	0x3c9c90d6	0.019112032
100	0xbcd41ecb	-0.02589359
101	0xbdd027b5	-0.101638235
102	0x3d864800	0.06556702
103	0xbc0db6cc	-0.008649539
104	0xbe36b973	-0.17844181
105	0xbca15f70	-0.019698828
106	0xbda6eeec	-0.081510395
107	0x3d4ff05d	0.050766338
108	0x3d9df8fa	0.07713504
109	0x3cd132bf	0.025536893
110	0xbdaf8716	-0.085706875
111	0xbe0fe813	-0.14053373
112	0xbc8bcffb	-0.017066946
113	0x3c64a100	0.013954401
114	0xbdf4e008	-0.11956793
115	0xbd9dccff	-0.077051155
116	0x3cff7d7f	0.03118777
117	0xbd97a91f	-0.07405304
118	0x3db6dd0c	0.0892888
119	0xbe193d54	-0.14964801
120	0xbad2b6f4	-0.0016076253
121	0x3dfed482	0.124428764
122	0xbdc6588d	-0.096848585
123	0x3b072979	0.0020624085
124	0xbdc4b87e	-0.096055016
125	0x3dd9f1b2	0.10641803
126	0x3d26a19c	0.040681466
127	0xbd03f3b3	-0.03221483
128	0x3e29aa0f	0.16568778
129	0xbdafbe4c	-0.08581218
130	0x3c133e84	0.008987073
131	0xbd2d3865	-0.04229011
132	0x3e372f70	0.1788919
133	0xbcdb5ff7	-0.026779158
134	0x3c06b4e0	0.008221835
135	0x3cd1a09a	0.025589276
136	0xbcfcbdda	-0.030852247
137	0x3c5d50dd	0.013508049
138	0xbdaf3da6	-0.085566804
139	0xbe19aa33	-0.15006332
140	0x3cec4589	0.02884175
141	0x3c9ad933	0.018902397
142	0xbe1e98b0	-0.15487933
143	0x3cf76e90	0.030204087
144	0xbdb0eeff	-0.08639335
145	0x3dad9f44	0.08477643
146	0x3cd8d06c	0.02646657
147	0x3d20fc05	0.039302845
148	0x3cdf1fbf	0.027236817
149	0x3d980309	0.07422454
150	0x3d3918f2	0.045189805
151	0x3d75f47c	0.06004761
152	0xbde0cbb2	-0.10976352
153	0x3da3719e	0.07980655
154	0x3d8707b1	0.06593264
155	0xbe0e9fd0	-0.13928151
156	0xbe338498	-0.17531049
157	0xbb12394e	-0.0022311988
158	0x3b34883b	0.002754702
159	0xbd71388b	-0.058891814
160	0xbdc280c5	-0.09497217
161	0x3b1154c3	0.0022175766
162	0xbdf4adfa	-0.11947246
163	0x3c666840	0.014062941
164	0x3d32f1c0	0.043687582
165	0xbdece864	-0.115677625
166	0xbd4390c3	-0.047745477
167	0xbdcd4ca1	-0.100243814
168	0x3c08af45	0.008342569
169	0x3d94b17d	0.07260416
170	0x3e13ad0d	0.14421482
171	0x3d32d468	0.043659598
172	0x3ca94276	0.020661574
173	0x3dc166e0	0.0944345
174	0x3d92d040	0.07168627
175	0xbe16103b	-0.14654629
176	0x3d756e04	0.059919372
177	0xbe3a9ac9	-0.18223108
178	0xbcac887a	-0.02106117
179	0xbd8ca195	-0.06866757
180	0x3d49f89f	0.04930937
181	0xbe0b32c6	-0.13593587
182	0x3e0e51eb	0.13898437
183	0xbdb18c9c	-0.08669397
184	0xb9a1b100	-0.00030840188
185	0x3def2aca	0.11678083
186	0x3d48e992	0.049050875
187	0xbd77ff26	-0.060546063
188	0x3d3ae932	0.04563255
189	0xbd198cdf	-0.03748786
190	0x3cb51850	0.02210632
191	0xbe5268e7	-0.2054783
192	0x3c05e06c	0.008171182
193	0x3ccccc7c	0.02499985
194	0x3ce6cf70	0.028175086
195	0xbdca1b66	-0.09868507
196	0x3bdf8748	0.0068215467
197	0x3d925eba	0.07146974
198	0xbd3f1efc	-0.04666041
199	0x3c12c380	0.008957744
200	0x3d409a2c	0.04702203
201	0x3dcdf806	0.10057072
202	0xbd119c90	-0.0355497
203	0x3c82903d	0.015937919
204	0x3cfb2941	0.03065932
205	0x3c9dedd0	0.019278437
206	0xbd84675e	-0.06465028
207	0x3d453e0c	0.048154876
208	0xbd205ab1	-0.03914899
209	0xbd9224be	-0.07135914
210	0x3d557e28	0.052122265
211	0xbe0de175	-0.13855536
212	0xbd8de571	-0.06928528
213	0xbcf7f1ab	-0.030266603
214	0x3c4d8cb6	0.012545755
215	0x3cb4fb00	0.022092342
216	0xbd9bed1d	-0.07613585
217	0xbde0eafc	-0.1098232
218	0x3c369c15	0.011145611
219	0xbcd685f6	-0.026186924
220	0x3d161693	0.036642622
221	0xbc3a41e1	-0.011368246
222	0x3e0f97fc	0.14022821
223	0xbd028150	-0.031861603
224	0x3d41cc06	0.047313713
225	0x3db3985a	0.08769293
226	0x3bdc9de3	0.0067326888
227	0xbe08a3db	-0.13343756
228	0xbdc67b1b	-0.09691449
229	0x3ca9e829	0.020740585
230	0x3c5c2807	0.013437278
231	0xbc1cab85	-0.009562378
232	0x3cfcc9ef	0.030858008
233	0x3ba52a0c	0.005040413
234	0xbdba5360	-0.09097934
235	0x3d7a5040	0.06111169
236	0x3d4995f3	0.04921527
237	0x3de71dc0	0.11284971
238	0xbb0eb03a	-0.002177252
239	0xbe38cdbb	-0.1804723
240	0x3be6d5db	0.0070445365
241	0xbc311535	-0.010808279
242	0x3d5b422d	0.053529907
243	0xbdac65b0	-0.08417833
244	0xbdc04a53	-0.09389176
245	0x3da61012	0.08108534
246	0xbdd3463c	-0.103161305
247	0xbd54e84d	-0.05197935
248	0x3cb42144	0.021988519
249	0xbd85d073	-0.06533899
250	0x3d69bec4	0.057066694
251	0xbe3b364e	-0.18282434
252	0xbe2295e0	-0.15877485
253	0xbd0ba10a	-0.034089126
254	0x3d1f4aa8	0.038889557
255	0xbd9a3c0f	-0.075309865

fc1_bn.weight f4 [256]
0	0x3f78d593	0.9720089
1	0x3f7facd5	0.99873096
2	0x3f7f4ab5	0.9972337
3	0x3f7f513a	0.99733317
4	0x3f75b5de	0.9598063
5	0x3f7affbd	0.98046476
6	0x3f777b09	0.9667211
7	0x3f7eacf9	0.99482685
8	0x3f704d62	0.93868077
9	0x3f83e354	1.030375
10	0x3f84ce13	1.0375389
11	0x3f85fe06	1.0468147
12	0x3f6c1949	0.9222608
13	0x3f80a7f7	1.0051259
14	0x3f78a160	0.9712124
15	0x3f6febf7	0.9371943
16	0x3f7b7770	0.9822912
17	0x3f863fd0	1.0488224
18	0x3f81f4ae	1.0152795
19	0x3f8379ee	1.0271585
20	0x3f8536f1	1.0407392
21	0x3f7c30fe	0.98512256
22	0x3f7dff4e	0.9921769
23	0x3f7cac89	0.9870077
24	0x3f771889	0.9652181
25	0x3f76604c	0.9624069
26	0x3f82b4d7	1.0211438
27	0x3f8138cc	1.0095458
28	0x3f84341c	1.0328403
29	0x3f80faf2	1.0076582
30	0x3f79d20a	0.9758612
31	0x3f8a9e0a	1.082948
32	0x3f746911	0.9547282
33	0x3fb6c7c9	1.427972
34	0x3f71981e	0.9437274
35	0x3f781f23	0.9692251
36	0x3f7a5a3d	0.9779394
37	0x3f770a79	0.96500355
38	0x3f9940b4	1.1972871
39	0x3f7730ec	0.96559024
40	0x3f764606	0.962006
41	0x3f7cfe4a	0.98825514
42	0x3f7c9eed	0.9868
43	0x3f74f920	0.95692635
44	0x3f888d57	1.0668133
45	0x3fa255e1	1.2682458
46	0x3f8353b1	1.0259916
47	0x3f8142b9	1.0098487
48	0x3f72120d	0.94558793
49	0x3f89084b	1.0705656
50	0x3f894fdd	1.0727497
51	0x3f7659b7	0.96230644
52	0x3f7b7134	0.9821961
53	0x3f769b42	0.96330655
54	0x3f7df591	0.9920283
55	0x3f78fc41	0.9725991
56	0x3f7a6a4c	0.97818446
57	0x3f7933ca	0.9734465
58	0x3f847b93	1.0350212
59	0x3f7a97f3	0.97888106
60	0x3f78ef9e	0.97240627
61	0x3f7b37d4	0.9813206
62	0x3f76145a	0.96124804
63	0x3f7522a4	0.9575598
64	0x3f805fe6	1.0029266
65	0x3f71a690	0.9439478
66	0x3f809947	1.0046777
67	0x3f804a2a	1.0022633
68	0x3f7b3869	0.9813295
69	0x3f7ead9a	0.99483645
70	0x3f70ad7d	0.9401472
71	0x3f70c71c	0.94053817
72	0x3f77a214	0.96731687
73	0x3f88b5e3	1.0680507
74	0x3f818048	1.0117273
75	0x3fc5ce34	1.5453553
76	0x3f88fe07	1.0702523
77	0x3f76f37c	0.9646528
78	0x3f754252	0.9580432
79	0x3f76c1ca	0.9638945
80	0x3f8a95f3	1.0827011
81	0x3f869d8c	1.051683
82	0x3f7f7ff7	0.99804634
83	0x3f72cfaf	0.9484815
84	0x3f7310c9	0.9494749
85	0x3f865141	1.0493547
86	0x3f7ea9cd	0.99477845
87	0x3f837694	1.0270562
88	0x3f7652e3	0.96220225
89	0x3f80b89e	1.0056341
90	0x3f7dd57e	0.9915389
91	0x3f7ec367	0.9951691
92	0x3f7f0ef2	0.9963218
93	0x3f7bac70	0.98309994
94	0x3f7788da	0.96693194
95	0x3f77c7c4	0.96789193
96	0x3f7e0186	0.99221075
97	0x3f760b3a	0.9611088
98	0x3f9152cd	1.1353394
99	0x3f80a54f	1.0050448
100	0x3f70cc3d	0.9406164
101	0x3f72ca3a	0.94839823
102	0x3f7c7a75	0.98624355
103	0x3f7448dc	0.95423675
104	0x3f78fcf9	0.97261006
105	0x3f7e4019	0.99316555
106	0x3f80c2bc	1.0059428
107	0x3f8db989	1.1072246
108	0x3f79e643	0.97616976
109	0x3f747c96	0.95502603
110	0x3f817e64	1.0116696
111	0x3f80aabd	1.0052105
112	0x3f8084ad	1.004049
113	0x3f6da8a3	0.92835444
114	0x3f8aaf6a	1.0834782
115	0x3f7fddd5	0.99947864
116	0x3f72d335	0.94853526
117	0x3f750f3d	0.95726377
118	0x3f74f9ec	0.9569385
119	0x3f8472b4	1.0347505
120	0x3f76aaab	0.9635417
121	0x3f7a2b79	0.97722584
122	0x3f7d0095	0.98829013
123	0x3f80e9ce	1.0071352
124	0x3f8893b3	1.0670074
125	0x3f7be5fe	0.98397815
126	0x3f8bfc8c	1.0936446
127	0x3f80d5c8	1.0065241
128	0x3f7bc4b3	0.98347014
129	0x3f82556f	1.0182322
130	0x3f821ba5	1.0164686
131	0x3f769189	0.9631582
132	0x3f7d8ba8	0.99041224
133	0x3f91a895	1.1379572
134	0x3fbf09b5	1.4924837
135	0x3f66365a	0.89926684
136	0x3f771335	0.9651368
137	0x3f78c865	0.9718078
138	0x3f7a9199	0.97878414
139	0x3f842032	1.0322325
140	0x3f784027	0.9697289
141	0x3f69ad9e	0.91280544
142	0x3f860f0d	1.0473343
143	0x3f752e5d	0.9577387
144	0x3f80d13c	1.0063853
145	0x3f798195	0.9746335
146	0x3f7695e8	0.9632249
147	0x3f7a2f20	0.9772816
148	0x3f8b6b0a	1.0892041
149	0x3f8d4c7b	1.1038965
150	0x3f7daf0f	0.99095243
151	0x3f7bb183	0.98317736
152	0x3f761ab1	0.9613448
153	0x3f7b1119	0.98072964
154	0x3f70b4d3	0.94025916
155	0x3f762e2c	0.961642
156	0x3f7e75c4	0.99398446
157	0x3f9f151c	1.2428317
158	0x3f89ac32	1.0755675
159	0x3f7fd361	0.99931914
160	0x3f6e3049	0.9304243
161	0x3f7f27c2	0.9967004
162	0x3f6fa9c7	0.93618435
163	0x3f6eb372	0.9324256
164	0x3f6e5183	0.93093127
165	0x3f8802cb	1.0625852
166	0x3f7671e8	0.9626756
167	0x3f76b408	0.96368456
168	0x3f91b91e	1.1384618
169	0x3f81ccb8	1.01406
170	0x3f7e6832	0.9937774
171	0x3f75f2b3	0.96073455
172	0x3f72d9cd	0.9486359
173	0x3f76863d	0.9629858
174	0x3f7d0ac9	0.9884458
175	0x3f7c68e0	0.98597527
176	0x3f7e74b9	0.99396855
177	0x3f8638ef	1.0486125
178	0x3f79671b	0.9742295
179	0x3f6d877d	0.92784864
180	0x3f7d7850	0.9901171
181	0x3f871c7b	1.0555567
182	0x3f7e1aa5	0.99259406
183	0x3f716794	0.9429867
184	0x3f6f834f	0.93559736
185	0x3f75d481	0.9602738
186	0x3f7ac31e	0.97953975
187	0x3f85df20	1.0458717
188	0x3f76cb0a	0.96403563
189	0x3f83df28	1.0302477
190	0x3f764832	0.9620391
191	0x3f857bc7	1.0428399
192	0x3f83961c	1.0280185
193	0x3f6f17cd	0.9339569
194	0x3f6fb18f	0.9363031
195	0x3f848e63	1.0355953
196	0x3f986f6f	1.1909007
197	0x3f766ff8	0.962646
198	0x3f7576a6	0.9588417
199	0x3f7a76aa	0.97837317
200	0x3f778d32	0.9669982
201	0x3f7c2a07	0.9850163
202	0x3f7dcab1	0.9913741
203	0x3f7c1b3b	0.9847905
204	0x3f882701	1.0636903
205	0x3f805efc	1.0028987
206	0x3f7f366c	0.99692416
207	0x3f74c2fd	0.9561003
208	0x3f7a0e28	0.9767785
209	0x3f742a17	0.95376724
210	0x3f6d0baf	0.9259595
211	0x3f75f344	0.9607432
212	0x3f7c5b1d	0.9857653
213	0x3f80581b	1.0026888
214	0x3f9ea317	1.2393521
215	0x3f8bc30c	1.0918899
216	0x3f83e49f	1.0304145
217	0x3f724f18	0.9465194
218	0x3f809098	1.0044127
219	0x3f74e316	0.95659006
220	0x3f76003f	0.96094126
221	0x3f82aef8	1.0209646
222	0x3f745629	0.9544397
223	0x3f8137e8	1.0095186
224	0x3f775a53	0.966222
225	0x3f776e88	0.9665303
226	0x3f844ecd	1.0336548
227	0x3f6fb620	0.93637276
228	0x3f870b3a	1.0550301
229	0x3f6e220c	0.930207
230	0x3f7eb33e	0.9949225
231	0x3f67fd2d	0.9062069
232	0x3f7efa30	0.99600506
233	0x3f77e15b	0.9682824
234	0x3f7c5824	0.9857199
235	0x3f821d8d	1.0165268
236	0x3f776b04	0.9664767
237	0x3f7ae5ea	0.9800707
238	0x3f824cc3	1.0179676
239	0x3f760d0a	0.96113646
240	0x3f710f48	0.9416394
241	0x3f87b283	1.0601352
242	0x3f7bdc1e	0.9838275
243	0x3f7d2e46	0.9889873
244	0x3f8069bb	1.0032266
245	0x3f80a23a	1.0049508
246	0x3f86360e	1.0485246
247	0x3f85b6ba	1.0446389
248	0x3f74d57a	0.9563824
249	0x3f87e922	1.0618021
250	0x3f73382b	0.9500758
251	0x3f822391	1.0167104
252	0x3f8473b0	1.0347805
253	0x3f89a670	1.0753918
254	0x3f775732	0.96617424
255	0x3f87e6c4	1.0617299

fc1_bn.bias f4 [256]
0	0x3d6dca16	0.058054052
1	0xbc636b01	-0.013880492
2	0x3ca78e82	0.020453695
3	0x3d219399	0.0394474
4	0x3c20a6f4	0.00980543
5	0x3c70bd34	0.014693547
6	0x3c5a5abf	0.0133273
7	0x3d110c6a	0.03541223
8	0xbc9b9aa6	-0.01899464
9	0xbc8c9f0d	-0.017165685
10	0x3cde5296	0.02713899
11	0x3d508385	0.050906677
12	0xbc771744	-0.015081231
13	0x3d0f72bc	0.03502153
14	0x3d6ae678	0.0573487
15	0x3cb9c2f4	0.022675969
16	0x3cb7443c	0.022371404
17	0x3c1d81a1	0.0096134255
18	0x3d60080f	0.054695185
19	0x3cbd2513	0.023088967
20	0x3d21b1d1	0.03947622
21	0x3b86c495	0.00411279
22	0x3d501e63	0.05081023
23	0x3d5d454d	0.05402117
24	0xbc6a15fa	-0.014287466
25	0x3c0130b1	0.007885144
26	0x3d8dd2b3	0.06924953
27	0x3d8604d7	0.06543892
28	0x3c777c32	0.015105294
29	0x3c7d3b7d	0.015456078
30	0x3d6f8112	0.0584727
31	0x3ca42485	0.020036945
32	0x3c91dabf	0.017804502
33	0x3d264977	0.040597405
34	0x3d4b26e3	0.049597632
35	0x3c920705	0.017825613
36	0x3d4fd24e	0.05073767
37	0x3d873cab	0.06603368
38	0xbaedb923	-0.001813684
39	0x3d643a2c	0.05571954
40	0x3c29594d	0.010336232
41	0x3cb368fd	0.021900648
42	0x3cf6c634	0.030123807
43	0x3d476911	0.048684184
44	0x3d6ab68d	0.057303
45	0x3cb27197	0.02178268
46	0xbc159ca2	-0.009131582
47	0x3d65c010	0.05609137
48	0x3cdef8a9	0.02721818
49	0x3c320cae	0.010867281
50	0x3d02a844	0.03189875
51	0x3d6c738f	0.057727393
52	0x3cb2c73c	0.021823518
53	0x3d3efe8a	0.046629466
54	0x3cb7d425	0.022440026
55	0x3d913d92	0.07091822
56	0x3d707a2e	0.05871027
57	0x3d7bfaa1	0.061518315
58	0x3cb8b0be	0.022545215
59	0xbb749888	-0.003732236
60	0x3da81601	0.08207322
61	0x3c9f605f	0.019455133
62	0x3b2f5f22	0.0026759584
63	0x3cf98504	0.030458935
64	0x3c2f0f2b	0.010684769
65	0x3cd09193	0.02546004
66	0x3cc5ea17	0.024159474
67	0x3bcb4929	0.0062037897
68	0x3d3c65c5	0.045995492
69	0x3d989ff3	0.07452383
70	0x3b0a951d	0.0021146007
71	0x3d09fa79	0.033686135
72	0x3d076341	0.03305364
73	0x3d0961f4	0.03354068
74	0x3dfaae90	0.122403264
75	0x3c9bf229	0.01903637
76	0x3d16cf1f	0.03681862
77	0x3da313b2	0.07962741
78	0x3c600def	0.013675197
79	0x3c9c2e30	0.019064993
80	0x3c089b22	0.008337768
81	0x3ca03060	0.019554317
82	0xbbec285f	-0.007206961
83	0x3d597bdc	0.053096637
84	0x3c30de76	0.010795226
85	0x3c4effc7	0.012634224
86	0x3c01bc86	0.007918483
87	0x3d59f811	0.05321509
88	0x3c89d181	0.016823532
89	0x3d76b7e2	0.060233958
90	0x3cabee0d	0.020987535
91	0x3cbe30a3	0.023216551
92	0xbccbd931	-0.024883838
93	0x3c7f8c72	0.01559745
94	0x3dc5f488	0.09665781
95	0x3c1e135f	0.009648173
96	0x3cb2dacf	0.021832852
97	0x3d02f301	0.031970028
98	0x3c8b1c46	0.016981255
99	0xbb5d42e1	-0.0033761787
100	0x3ca9f8e4	0.020748563
101	0x3d48583f	0.048912283
102	0x3d3218d9	0.043480728
103	0x3d3f3314	0.04667957
104	0x3da3c390	0.07996285
105	0x3d5131a5	0.051072735
106	0x3d38e46e	0.045139723
107	0x3d085ad5	0.03328975
108	0xba9b1342	-0.0011831301
109	0x3c59e031	0.01329808
110	0xbbd752e4	-0.0065711606
111	0x3d3416a9	0.043966923
112	0x3cdcfe7a	0.026976813
113	0x3d98d939	0.07463307
114	0x3c811c0e	0.015760448
115	0xbc6279fe	-0.0138230305
116	0x3d7aa653	0.061193775
117	0x3c7ab9a1	0.015303046
118	0x3d66cf27	0.0563499
119	0x3df28214	0.11841217
120	0x3cedbc27	0.029020382
121	0x3d5df306	0.054186843
122	0x3c801367	0.015634252
123	0xbcb887eb	-0.022525748
124	0x3d13475e	0.035956733
125	0x39d4328d	0.00040473454
126	0x3c35b5e6	0.011090731
127	0x3ce83db9	0.028349744
128	0xbc5ec8ee	-0.01359771
129	0x3db379c5	0.0876346
130	0x3ba0e17e	0.0049096933
131	0xbc51ce3a	-0.012805516
132	0xbc82d3ac	-0.015970074
133	0x3cedcca8	0.029028252
134	0x3ca0b5e1	0.019617977
135	0x3d2992b2	0.041399665
136	0x3c64ef58	0.01397308
137	0x3ca4c663	0.02011413
138	0x3c0387f3	0.008028018
139	0x3ce7c92c	0.028294168
140	0x3d53769e	0.051626794
141	0x3d2a0b54	0.04151471
142	0x3d2b7f20	0.041869283
143	0x3cadb26a	0.021203239
144	0x3d5f2c7c	0.054485783
145	0x3d494ba2	0.049144395
146	0x3da87597	0.082255535
147	0x3c4bf707	0.012449033
148	0xbbbeac0d	-0.00581885
149	0x3d33d18d	0.043901015
150	0xbb76d6e2	-0.0037664701
151	0x3d5614bc	0.052265868
152	0x3d413193	0.04716642
153	0x3d23feae	0.040037803
154	0x3d4027ca	0.046912946
155	0xbb91f881	-0.004454673
156	0x3c81639c	0.015794568
157	0x3949c3f3	0.0001924185
158	0x3d1cead1	0.038309876
159	0x3d78895d	0.060677875
160	0x3d86c399	0.06580276
161	0x3ce0992c	0.027416788
162	0x3d95ddc8	0.07317692
163	0x3cfdf753	0.031001722
164	0x3c959234	0.018258192
165	0xbd214476	-0.03937193
166	0xbcda817b	-0.02667307
167	0x3da460f1	0.080263026
168	0xbcacf2e7	-0.021111919
169	0x3cd638a8	0.026150063
170	0x3d296f02	0.04136563
171	0x3cc8e9f3	0.024525618
172	0x3d37afea	0.0448455
173	0x3d0d61df	0.034517165
174	0x3d2f343c	0.042774424
175	0x3d6e64a2	0.05820144
176	0x3cc61c9b	0.024183562
177	0x3d1197b9	0.035545085
178	0x3cfb8406	0.030702602
179	0xbbd647df	-0.0065393294
180	0x3d2411d2	0.040056057
181	0x3be8f1bd	0.0071088956
182	0x3d18f984	0.03734733
183	0x3c83ae8e	0.016074445
184	0x3c173a2b	0.009230177
185	0x3c4c6bba	0.012476856
186	0xbcd92122	-0.026505057
187	0x3c959736	0.01826058
188	0x3d528da6	0.051404618
189	0x3d34a5a6	0.044103287
190	0x3d16b99f	0.036798116
191	0x3d109ba9	0.0353047
192	0x3cc41bdb	0.023939064
193	0xbca06c5e	-0.019582924
194	0x3c2647b4	0.010148931
195	0x3d4b1e32	0.049589343
196	0x3d1d637d	0.038424958
197	0x3ca9ad33	0.02071247
198	0x3d22e437	0.039768424
199	0x3d597903	0.05309392
200	0x3da4f9ab	0.08055433
201	0xbcb038fc	-0.021511547
202	0x3cfd1675	0.030894497
203	0x3d3d1cf6	0.046170197
204	0x3d058dc0	0.032605886
205	0xbd5614f7	-0.052266087
206	0x3d31585d	0.04329716
207	0x3bcc3db7	0.006232943
208	0x3cc685cb	0.02423372
209	0x3d58a9e5	0.0528964
210	0x3ca58e5f	0.02020949
211	0x3d2abfb2	0.04168672
212	0x3d9c77f2	0.07640065
213	0x3d506046	0.050873064
214	0x3cb7edc1	0.022452237
215	0x3d116b25	0.03550257
216	0x3cf685ca	0.030093092
217	0x3dbe27d2	0.09284939
218	0x3bbc53ce	0.005747295
219	0x3d25bef9	0.04046533
220	0x3c761afc	0.015021082
221	0x3cd846a3	0.02640087
222	0x3d2f5c80	0.042812824
223	0x3d261acf	0.04055291
224	0x3c39ae85	0.011333113
225	0x3c42d6a2	0.011891993
226	0x3d27f6aa	0.04100672
227	0x3d0155dd	0.031576026
228	0x3c7c7847	0.015409536
229	0x3dbd850d	0.09253893
230	0x3d4af2b4	0.049547866
231	0xbc94f25e	-0.018181976
232	0x3ce80af7	0.028325541
233	0xbb43884d	-0.002983588
234	0x3c07f507	0.008298165
235	0x3d4a9602	0.049459465
236	0x3d58c098	0.052918047
237	0x3d0f971b	0.035056215
238	0xbc99a4d0	-0.018755347
239	0x3d18c594	0.0372978
240	0x3da10171	0.07861603
241	0x3acecb46	0.0015777133
242	0x3d875c3e	0.06609391
243	0x3ce335fe	0.027735706
244	0x3cc98b5a	0.02460258
245	0x3c519a82	0.012793185
246	0x3c6436dd	0.013929096
247	0x3d9b9ed5	0.07598654
248	0x3cbd2f89	0.023093956
249	0x3d2c4dd6	0.042066418
250	0xbcbf93c6	-0.023385894
251	0x3d0ca8c1	0.034340624
252	0x3d044a30	0.032297313
253	0x3d060e71	0.032728616
254	0x3c190246	0.009338921
255	0xbb0896eb	-0.0020841907

fc1_bn.running_mean f4 [256]
0	0x3e34c8c8	0.17654717
1	0x3d7d5acc	0.06185417
2	0x3d4eb991	0.05046994
3	0x3de78c5b	0.113060676
4	0x3e0479b4	0.12937051
5	0x3d404f9f	0.046950933
6	0x3d966d33	0.07345047
7	0x3e019fa4	0.12658554
8	0x3e068c9f	0.1313958
9	0x3da095b5	0.07841054
10	0x3da170b3	0.07882824
11	0x3cff444a	0.031160492
12	0x3dfe1701	0.124067314
13	0x3d8efcbe	0.069818005
14	0x3d88b930	0.06675947
15	0x3dff37a2	0.12461783
16	0x3de5bcb9	0.112176366
17	0x3d5a5ef9	0.05331323
18	0x3d1436f8	0.036185235
19	0x3da2ec52	0.07955231
20	0x3c916bc0	0.017751575
21	0x3e5c28a1	0.21499874
22	0x3e45bec3	0.19311051
23	0x3eaed597	0.3414733
24	0x3d674517	0.056462374
25	0x3dda9bb9	0.10674233
26	0x3d314a39	0.043283675
27	0x3ce89e8b	0.028395912
28	0x3cb6fc56	0.02233712
29	0x3d9a9b5c	0.07549164
30	0x3d2285b0	0.039678276
31	0x3c9ddd52	0.019270573
32	0x3dc4632d	0.09589229
33	0x3cda96a5	0.026683161
34	0x3dd200f3	0.10254087
35	0x3dd37276	0.10324566
36	0x3e1c25af	0.1524875
37	0x3eac458a	0.33646804
38	0x3cd778bf	0.026302693
39	0x3e28cf95	0.16485436
40	0x3e2dd2d7	0.1697496
41	0x3caa9a83	0.02082563
42	0x3d812d4f	0.0630747
43	0x3dd3fc0c	0.103508085
44	0x3ce13247	0.027489794
45	0x3d7bb872	0.061455198
46	0x3ce0bfa8	0.027435139
47	0x3c6b3c32	0.014357613
48	0x3e254489	0.16139425
49	0x3d1771b1	0.03697366
50	0x3d5f74f3	0.05455489
51	0x3e44b5ba	0.19209948
52	0x3d9fd58d	0.078044035
53	0x3df81968	0.12114221
54	0x3e2b0102	0.16699603
55	0x3deb0a66	0.11476593
56	0x3d5f1c3f	0.054470297
57	0x3f171c23	0.5902731
58	0x3dd1ad4d	0.102381326
59	0x3dce55db	0.100749694
60	0x3eebba49	0.46040562
61	0x3d25a9db	0.04044519
62	0x3e389662	0.18026116
63	0x3decf319	0.11569805
64	0x3e4150c8	0.18878472
65	0x3e1fa6b6	0.15590939
66	0x3dde2f8d	0.10848913
67	0x3d9f7287	0.07785516
68	0x3d6dc5b7	0.058049884
69	0x3e13f0d8	0.14447343
70	0x3dfa5fe1	0.12225319
71	0x3db9189f	0.09037899
72	0x3c9885a9	0.018618422
73	0x3da4accf	0.08040773
74	0x3da00cba	0.078149274
75	0x3d3e20a6	0.046417855
76	0x3c7b545b	0.015339936
77	0x3e2a4635	0.16628344
78	0x3e0cb685	0.137415
79	0x3d8af7e8	0.067855656
80	0x3d2c1fc0	0.042022467
81	0x3dc67b12	0.096914425
82	0x3e13559e	0.14388129
83	0x3e582a60	0.21109915
84	0x3d6bcdfc	0.05756949
85	0x3df65f6a	0.120299175
86	0x3e1c9c2b	0.15293948
87	0x3d426ebe	0.047468893
88	0x3e7d22bc	0.24720281
89	0x3dac2c89	0.08406932
90	0x3c79665c	0.015222158
91	0x3dd95994	0.10612789
92	0x3d233d76	0.039853536
93	0x3dea676e	0.11445509
94	0x3d81eb67	0.063437276
95	0x3db949aa	0.090472534
96	0x3dd184de	0.102304205
97	0x3e4afefb	0.1982383
98	0x3d319514	0.043355063
99	0x3d6a12e2	0.057146914
100	0x3dddb50c	0.108255476
101	0x3de3298c	0.11091909
102	0x3dde0669	0.108410664
103	0x3d843eb4	0.06457272
104	0x3dbb14e4	0.09134844
105	0x3db1d0e4	0.08682421
106	0x3d8af68e	0.06785308
107	0x3daae437	0.0834431
108	0x3e43c651	0.1911862
109	0x3e038bf7	0.12846361
110	0x3c9b90dc	0.018989973
111	0x3d7bab6c	0.061442778
112	0x3d043f5b	0.032286983
113	0x3e51956b	0.20467155
114	0x3c8a9582	0.016916994
115	0x3d7cf1c8	0.061754018
116	0x3d9acf3e	0.075590596
117	0x3eb408ce	0.35162967
118	0x3e36a8ef	0.1783788
119	0x3d00f20c	0.031480834
120	0x3d9af19c	0.075656146
121	0x3e418d31	0.18901516
122	0x3d3c5dff	0.04598808
123	0x3da5c8df	0.08094954
124	0x3cbeb3be	0.023279067
125	0x3e922e7d	0.28551093
126	0x3d67a1ef	0.056550916
127	0x3d5a5e35	0.0533125
128	0x3e431cb8	0.19053924
129	0x3d165548	0.036702424
130	0x3d89c06a	0.06726153
131	0x3e129169	0.14313282
132	0x3e3b89c0	0.18314266
133	0x3cc21bef	0.02369496
134	0x3d32eb9e	0.043681733
135	0x3d9fc6d1	0.07801593
136	0x3c9d4636	0.019198518
137	0x3da57e51	0.080807336
138	0x3c60c6ee	0.0137193035
139	0x3d4b6300	0.04965496
140	0x3e2e9ee6	0.17052802
141	0x3d980f47	0.07424789
142	0x3c2a9784	0.010412101
143	0x3deaf56e	0.11472593
144	0x3cfba216	0.030716937
145	0x3e01ed9d	0.12688299
146	0x3d9591ba	0.07303186
147	0x3e3a3203	0.1818314
148	0x3d7dd0c8	0.061966687
149	0x3da7d347	0.08194595
150	0x3d8a9af3	0.067678355
151	0x3dcdb018	0.10043353
152	0x3e0342f0	0.12818503
153	0x3e3f8c36	0.1870583
154	0x3e1ef318	0.1552242
155	0x3df4f0e4	0.11960009
156	0x3c2211a3	0.0098919
157	0x3ce1afa5	0.027549574
158	0x3da9703c	0.0827336
159	0x3dce61e1	0.10077263
160	0x3d51e4de	0.051243655
161	0x3e16e1cd	0.14734574
162	0x3de6568a	0.11246975
163	0x3d948577	0.07252019
164	0x3daa2f8b	0.08309849
165	0x3bf771ba	0.007551399
166	0x3d96567e	0.07340716
167	0x3de02458	0.10944432
168	0x3d2653e5	0.04060735
169	0x3dd2599f	0.10271
170	0x3e24fa96	0.16111216
171	0x3debe1d3	0.11517682
172	0x3dfcda17	0.12346285
173	0x3eab6e9d	0.3348283
174	0x3e031236	0.12799916
175	0x3e12373d	0.14278884
176	0x3dfe70b4	0.1242384
177	0x3c1065c1	0.0088133225
178	0x3decbf55	0.11559931
179	0x3e2e8e07	0.17046367
180	0x3e018121	0.12646915
181	0x3d0398f5	0.032128293
182	0x3e1e0aaf	0.15433763
183	0x3e41ce88	0.18926442
184	0x3dedc639	0.116100736
185	0x3e501a4b	0.2032253
186	0x3da6fd9c	0.08153841
187	0x3cf75f96	0.030196946
188	0x3e00dfd2	0.1258538
189	0x3d02e839	0.031959746
190	0x3dc15232	0.09439506
191	0x3c8c8ff3	0.017158484
192	0x3d1f86aa	0.038946785
193	0x3da5f667	0.08103638
194	0x3d8a5263	0.06753995
195	0x3cbaa6ae	0.022784557
196	0x3d74e259	0.059786174
197	0x3e1ad65e	0.15120837
198	0x3e40d1c4	0.18830019
199	0x3da62076	0.0811166
200	0x3ddc10b7	0.107453756
201	0x3e0e5134	0.13898164
202	0x3d47bc1a	0.048763372
203	0x3da7217d	0.08160684
204	0x3d8a5fa5	0.06756524
205	0x3dddd5ad	0.10831771
206	0x3d9a4ae5	0.07533816
207	0x3e12b91e	0.14328429
208	0x3d5466fd	0.05185603
209	0x3db0d923	0.086351655
210	0x3e6b343c	0.22969145
211	0x3cfac369	0.030610757
212	0x3e142af8	0.14469516
213	0x3dc03cfc	0.09386632
214	0x3d85a5a5	0.06525735
215	0x3d5ee126	0.054413937
216	0x3c91e1e1	0.017807903
217	0x3e1d95bf	0.15389155
218	0x3d9e6335	0.07733766
219	0x3eb1a145	0.3469335
220	0x3d79f3bc	0.06102346
221	0x3df96d52	0.12179054
222	0x3e95c3ad	0.2925085
223	0x3d55abc9	0.05216578
224	0x3f18275d	0.59435064
225	0x3e5292fc	0.20563883
226	0x3d88b787	0.0667563
227	0x3d0626fb	0.03275202
228	0x3d92a4b0	0.07160318
229	0x3ded9244	0.116001636
230	0x3d7635a4	0.06010975
231	0x3e8e238f	0.27761504
232	0x3de59467	0.11209946
233	0x3dc33225	0.09531049
234	0x3e657d8c	0.22411174
235	0x3dcaa84e	0.09895383
236	0x3df323cb	0.11872061
237	0x3e0a2e29	0.13494171
238	0x3d8452f8	0.064611375
239	0x3c7838c5	0.015150254
240	0x3dcd6c63	0.10030439
241	0x3d11934d	0.035540868
242	0x3df2f006	0.11862187
243	0x3c89a64d	0.016802931
244	0x3df4406b	0.11926349
245	0x3db20ecc	0.086942285
246	0x3d5f808d	0.054565955
247	0x3cadd528	0.021219805
248	0x3e03ad58	0.12859094
249	0x3d818141	0.06323481
250	0x3e32c15f	0.17456578
251	0x3c582efb	0.013194795
252	0x3c6eecb2	0.0145828
253	0x3da8d955	0.08244578
254	0x3d997bca	0.07494314
255	0x3cec5987	0.028851284

fc1_bn.running_var f4 [256]
0	0x3eab44b4	0.33450854
1	0x3e571f82	0.21008113
2	0x3eee194f	0.46503684
3	0x3e19d62e	0.1502311
4	0x3eb45acc	0.35225523
5	0x3f06691d	0.5250414
6	0x3e83a7b0	0.25713873
7	0x3e73f0eb	0.23822372
8	0x3f142a64	0.5787718
9	0x3f08f159	0.5349327
10	0x3f266a93	0.6500637
11	0x3ccdb530	0.025110811
12	0x3ec90421	0.39260963
13	0x3e72de10	0.23717523
14	0x3ef1ec91	0.47250798
15	0x3f02e285	0.5112689
16	0x3e3f3961	0.18674232
17	0x3dae5cc5	0.08513788
18	0x3e5b17b0	0.21395755
19	0x3e11a375	0.1422251
20	0x3e80e7b9	0.2517679
21	0x3ee37cb1	0.4443107
22	0x3e92c5f4	0.2866665
23	0x3ef433ad	0.47695675
24	0x3f040872	0.51575387
25	0x3efebad8	0.49751925
26	0x3e1514ba	0.14558688
27	0x3e896fa7	0.26842996
28	0x3e833c31	0.2563186
29	0x3f36b6d2	0.7137271
30	0x3e8e6624	0.27812302
31	0x3d8482d9	0.0647027
32	0x3ef1015b	0.47071347
33	0x3eea61ae	0.4577765
34	0x3e88bd5f	0.2670698
35	0x3e57291a	0.21011773
36	0x3e9bc393	0.3042265
37	0x3eb84332	0.35988766
38	0x3edb5b61	0.42843154
39	0x3e7aebe2	0.24504045
40	0x3e94f9df	0.29096887
41	0x3ea5c407	0.3237612
42	0x3e9464f6	0.28983277
43	0x3ee5017a	0.4472769
44	0x3ec5e5cb	0.3865188
45	0x3f40e02c	0.7534206
46	0x3ddcaea8	0.107755005
47	0x3df893bd	0.12137554
48	0x3e933b80	0.28756332
49	0x3dade283	0.08490469
50	0x3ea91242	0.33021742
51	0x3e999ba2	0.3000155
52	0x3e5364ba	0.20643893
53	0x3eb9069e	0.3613786
54	0x3ec6d8b4	0.38837206
55	0x3ea0e365	0.31423488
56	0x3e24e563	0.16103129
57	0x3f4ec416	0.80767953
58	0x3e3fd3a2	0.18733075
59	0x3e7fea58	0.24991739
60	0x3f17bebb	0.59275407
61	0x3e26f48c	0.16304225
62	0x3e4842a2	0.19556668
63	0x3eff2a35	0.4983689
64	0x3df11af1	0.11772717
65	0x3f0781a1	0.52932173
66	0x3e4ed25e	0.20197436
67	0x3dcec28a	0.10095699
68	0x3e64b09c	0.22332996
69	0x3e9914c6	0.2989866
70	0x3e9f0e4f	0.31065604
71	0x3ed508a2	0.4160815
72	0x3e7d059b	0.2470917
73	0x3e0e0270	0.13868117
74	0x3e38c930	0.18045497
75	0x3fce2f3f	1.6108168
76	0x3dc15121	0.09439302
77	0x3ec21196	0.37904042
78	0x3ef6ad03	0.48178872
79	0x3ec60527	0.38675806
80	0x3d800b11	0.06252111
81	0x3d8efc8b	0.069817625
82	0x3e944ab5	0.28963247
83	0x3f00b09c	0.50269485
84	0x3ea05171	0.31312135
85	0x3ded8889	0.11598308
86	0x3e6352cd	0.22199555
87	0x3e35c0f9	0.17749394
88	0x3eba8250	0.36427546
89	0x3e42de90	0.19030213
90	0x3ece315c	0.40272033
91	0x3eb71cfa	0.35764295
92	0x3e28b4b8	0.16475189
93	0x3e9f9ea1	0.31175712
94	0x3ee63655	0.44963327
95	0x3eb624ee	0.3557505
96	0x3ed08d5c	0.4073285
97	0x3e8cf56e	0.27530998
98	0x3f23166f	0.63706106
99	0x3e674cde	0.22587916
100	0x3efd8533	0.49515685
101	0x3ec485c5	0.38383308
102	0x3e88c3b1	0.267118
103	0x3ea337b1	0.31878427
104	0x3e48ea4c	0.19620627
105	0x3eaeca44	0.3413869
106	0x3e659bca	0.2242271
107	0x3d963ba1	0.07335592
108	0x3eac2a60	0.3362608
109	0x3e9cdaee	0.3063578
110	0x3e97cbb9	0.29647616
111	0x3e0fd473	0.14045887
112	0x3eb9dd3a	0.36301595
113	0x3ee5d344	0.44887745
114	0x3ef54bcd	0.47909394
115	0x3e51a7c7	0.20474158
116	0x3ee4c7c6	0.44683665
117	0x3f07fb56	0.53117883
118	0x3eddc0e5	0.4331123
119	0x3dd5f731	0.10447539
120	0x3f028084	0.5097735
121	0x3ec24bed	0.37948552
122	0x3eff45b9	0.49857882
123	0x3ef6fdc3	0.4824048
124	0x3e8ac1b5	0.27100912
125	0x3ec9c098	0.3940475
126	0x3e07cabc	0.13260931
127	0x3e741182	0.23834804
128	0x3e33ec5c	0.17570633
129	0x3ee0f7fa	0.4393919
130	0x3e2e8aaf	0.17045091
131	0x3ea3d234	0.3199631
132	0x3e685d6c	0.22691888
133	0x3d6f4e15	0.058424074
134	0x3fcd2d0a	1.602937
135	0x3ec912ad	0.3927206
136	0x3e86f41b	0.26358113
137	0x3e7faeea	0.24969068
138	0x3e953481	0.2914162
139	0x3d997d63	0.07494619
140	0x3e9a8392	0.30178505
141	0x3eea7914	0.457955
142	0x3de172bf	0.11008214
143	0x3efaa701	0.4895554
144	0x3e60710d	0.21918125
145	0x3f03ed00	0.5153351
146	0x3f2b9c73	0.670356
147	0x3e70bd87	0.23509799
148	0x3ed7f390	0.4217801
149	0x3e07ab8b	0.13249032
150	0x3ea08552	0.31351715
151	0x3f08643f	0.53277963
152	0x3e8acc37	0.2710893
153	0x3e3d5899	0.18490829
154	0x3edf1aa7	0.43575022
155	0x3eca0f82	0.39464957
156	0x3e91b4f6	0.28458375
157	0x3ea91980	0.33027267
158	0x3de35f40	0.11102152
159	0x3e961bf6	0.29318208
160	0x3e733b9f	0.23753212
161	0x3e4c848f	0.19972442
162	0x3e8bdfde	0.27319235
163	0x3ed29ff0	0.41137648
164	0x3eb050e3	0.34436712
165	0x3e10f3ea	0.14155546
166	0x3e907bf6	0.28219575
167	0x3e95f9bd	0.29292098
168	0x3dcda6b7	0.10041564
169	0x3ea3e8c4	0.32013524
170	0x3f52c03f	0.82324594
171	0x3edbf998	0.42963862
172	0x3eac59de	0.33662313
173	0x3e96e11e	0.29468626
174	0x3e71b67f	0.23604773
175	0x3e96af40	0.2943058
176	0x3e323dbd	0.17406364
177	0x3de649d3	0.112445496
178	0x3e9241e7	0.28565904
179	0x3ed5bc5d	0.41745272
180	0x3e9cc9b0	0.30622625
181	0x3dcbf38f	0.099585645
182	0x3ecb8595	0.39750353
183	0x3edfccdf	0.43710992
184	0x3ea3c178	0.31983542
185	0x3e98aa1b	0.2981728
186	0x3ebc699d	0.36799327
187	0x3e35fb0c	0.17771548
188	0x3eaf71a0	0.34266376
189	0x3e85c768	0.26128697
190	0x3e8e2271	0.27760652
191	0x3d778a05	0.06043436
192	0x3eb403d7	0.3515918
193	0x3ed496ea	0.41521388
194	0x3eb3c56c	0.35111558
195	0x3e3dc258	0.18531168
196	0x3fba385a	1.4548447
197	0x3ecce2bc	0.40016735
198	0x3e934208	0.28761315
199	0x3e7994cd	0.24373169
200	0x3ea4c333	0.32180175
201	0x3e5a8d7c	0.21343035
202	0x3ea89035	0.3292252
203	0x3eda4c82	0.42636496
204	0x3db2f88b	0.08738812
205	0x3e0cc5e2	0.13747361
206	0x3e096206	0.13416299
207	0x3ec10a7c	0.3770331
208	0x3ec55ff6	0.38549775
209	0x3e90e575	0.28300062
210	0x3f0b1898	0.543344
211	0x3e81dddf	0.25364587
212	0x3e91e939	0.28498247
213	0x3dd00f5b	0.10159179
214	0x3fbe5066	1.4868286
215	0x3dba12a0	0.09085584
216	0x3ea3bff0	0.31982374
217	0x3e88d9c4	0.26728642
218	0x3e0c6152	0.13709
219	0x3f024918	0.5089278
220	0x3edb2d42	0.42807966
221	0x3e917c63	0.28415212
222	0x3eb76d53	0.35825595
223	0x3eeb8a97	0.46004173
224	0x3f410564	0.7539885
225	0x3e773ce8	0.24144328
226	0x3ef4600f	0.47729537
227	0x3ea68729	0.32524994
228	0x3ed4158a	0.41422683
229	0x3ed194e5	0.4093391
230	0x3ecb7b25	0.3974239
231	0x3ef3468a	0.47514755
232	0x3eea1c1f	0.4572458
233	0x3e75c38f	0.24000381
234	0x3eb973ca	0.36221153
235	0x3e6189d5	0.22025235
236	0x3e78d250	0.24298978
237	0x3e6efe0d	0.233391
238	0x3e63b0a7	0.22235356
239	0x3e94e985	0.2908441
240	0x3f0d3614	0.5516064
241	0x3e71e421	0.2362218
242	0x3eeb6c09	0.45980862
243	0x3ec8bf1f	0.39208314
244	0x3e0b2296	0.13587412
245	0x3eaac28e	0.33351558
246	0x3ee30822	0.44342142
247	0x3efad4cb	0.48990473
248	0x3ef30a74	0.47468913
249	0x3eb2003a	0.34765798
250	0x3ebc1edc	0.36742294
251	0x3e6c98ee	0.23105213
252	0x3e4dbf14	0.20092422
253	0x3dffa2bf	0.12482213
254	0x3eee6fd2	0.46569687
255	0x3eee17e0	0.4650259
